classification/LeNet/output/LeNet_checkpoint.pth (torch, 250441 bytes, 10 tensors)

enc.0.weight f4 [6, 1, 5, 5]
000000 73 11 fb 3e 48 b9 0a 40 57 39 4b 40 b1 08 08 40
       0.4903675 2.1675587 3.1753747 2.1255305
000010 a0 2a 26 3e db b5 1c 3f 43 e9 35 40 3e 0f a0 40
       0.16227198 0.6121499 2.8423622 5.0018606
000020 cd f6 3d 40 87 ed 2b 3e 28 f0 b0 3e 78 d1 d0 3f
       2.9681885 0.16789828 0.34558225 1.6313925
000030 14 df 90 40 27 ce 37 40 af 12 ac bd c5 65 35 be
       4.527231 2.8719575 -0.08402001 -0.17714603
000040 b7 59 45 3f 51 a6 32 40 9d 23 c0 3f 93 f3 0d be
       0.7709002 2.7914011 1.5010868 -0.13862447
000050 c6 e2 59 be 2b 2b 6f 3e 61 e6 ca 3f f5 58 64 3f
       -0.21277913 0.23356311 1.5851556 0.8919824
000060 7d e7 b8 be e1 fb c6 3d f9 98 66 3f 30 a0 c2 3f
       -0.36114112 0.09716011 0.9007717 1.5205135
000070 88 da 7d 3f c7 1b 58 3f 0b 0b 8b be 9d 54 10 bd
       0.9916158 0.84417385 -0.27156863 -0.035236944
000080 42 09 ac 3e b0 60 00 be f9 0e 9a 3e 6e 8f 85 bd
       0.33600813 -0.12536883 0.30089548 -0.06521498
000090 e2 66 5b bf 87 c4 69 bf a6 e2 1b bf 88 ec a7 3e
       -0.8570386 -0.913155 -0.60892713 0.32797647
0000a0 77 d3 ab 3e ab 78 8c bf 7f e9 db bf 61 d1 d5 bf
       0.33559772 -1.0974325 -1.7180632 -1.6704522
0000b0 9f 4a 93 be 1f cd 2c 3e 1a 19 6f bf 79 4d e1 bf
       -0.2876787 0.16875122 -0.93397677 -1.7601768
0000c0 11 02 17 c0 b6 ff a6 bf c9 7c 2b 3e a1 89 d2 bf
       -2.3595011 -1.3046787 0.1674682 -1.6448251
0000d0 6a 2c 7a c0 b1 3b 9d c0 ec c1 54 bf da 5f 0c 3e
       -3.9089608 -4.9135365 -0.831084 0.1370844
0000e0 1f f8 1b c0 ca da cb c0 03 7d b3 c0 8a c4 8d bf
       -2.437019 -6.3704576 -5.60901 -1.1075604
0000f0 b7 36 46 3f b0 26 c0 be b3 dd bb bf 47 18 8d bf
       0.7742724 -0.37529516 -1.4677032 -1.1023034
000100 97 81 ed 3d 7d 3c 28 3f 92 ac ba 3e 82 ac 96 be
       0.11596983 0.657173 0.36459786 -0.29428488
000110 11 b8 ce bc a4 fd 2e 3f 33 46 4d 3f 77 40 0e 3e
       -0.025234254 0.68355775 0.8018524 0.13891779
000120 39 67 91 bd e1 43 01 3e e6 84 c9 3e 81 c7 34 3e
       -0.07099766 0.1262355 0.39359206 0.1765423
000130 38 b4 c3 3f d4 5a 46 40 12 e6 20 40 86 f5 81 3f
       1.5289373 3.0992937 2.5140424 1.0153053
000140 92 75 bd 3e 59 a1 eb 3f 0a 7a 9c 40 3b 3b 74 40
       0.37003762 1.8408614 4.8898973 3.8161151
000150 a6 a6 ac 3f 76 5c ef bd 47 5f 6c 3f 3c ef 81 40
       1.3488357 -0.116875574 0.9233288 4.0604534
000160 86 cf 80 40 ee 9d 51 3f b4 28 2a bf 1f cb 8d bc
       4.0253325 0.81881607 -0.6646836 -0.01730877
000170 b1 6b 2b 40 c1 31 2c 40 00 0b 4f 3f 2c 63 06 bf
       2.678448 2.6905367 0.8087616 -0.52495074
000180 37 a3 06 be ba 9c d1 3f 62 46 c9 3f ac b7 25 3f
       -0.13148199 1.6375954 1.5724604 0.64733386
000190 99 82 50 3f cf d1 f2 3d cf 78 63 bf fd 09 13 bf
       0.81449276 0.11856424 -0.88856214 -0.57437116
0001a0 00 f8 27 be a2 76 53 3f 25 88 ad bd 77 a2 7e bf
       -0.16403198 0.82602894 -0.08473233 -0.9946665
0001b0 27 66 99 be c4 c9 bc 3e 67 77 8c 3f 91 eb 06 3d
       -0.2996075 0.36872685 1.0973939 0.032939497
0001c0 1f 0c 32 bf a9 5a 8c be 34 de 16 3e 48 fe 82 3f
       -0.69549745 -0.27412918 0.14733201 1.023385
0001d0 71 54 5b bc f7 b9 6f bf dc e9 bf be fa 76 ed 3d
       -0.013386832 -0.93643135 -0.37483108 0.115949586
0001e0 f4 f3 32 3f ad 05 50 3e 4f 16 1c bf 01 27 49 be
       0.6990349 0.20314665 -0.6097154 -0.19643785
0001f0 03 50 5c bb 21 9d 9a 3e 21 9e e9 be 74 48 81 bf
       -0.0033617027 0.30198005 -0.45628455 -1.0100236
000200 1f 9e cf bf 45 5d 59 bf 0f 52 60 3f e9 6a 18 3e
       -1.622013 -0.84907943 0.8762521 0.14884533
000210 62 24 1d bf 09 51 de bf 9a b5 12 bf 52 11 a0 3f
       -0.6138364 -1.736848 -0.5730835 1.2505286
000220 72 87 e5 3e 7f 10 e5 be ab a9 34 bf da cd 92 3e
       0.448299 -0.44739148 -0.7057139 0.28672677
000230 bc 66 57 3f 4b 5f 06 3f f6 60 7e bd ad 23 26 bf
       0.84141135 0.52489156 -0.062104188 -0.64898187
000240 a4 b1 e2 3d 90 49 7b 3f 61 1f 06 3f 91 fb 2a 3e
       0.110690385 0.9815912 0.5239163 0.16697527
000250 79 dc 13 bf 36 48 d3 3d
       -0.5775829 0.103165075

enc.0.bias f4 [6]
000000 01 18 13 bf 52 f2 24 3f 27 27 cf 3e 7c 31 12 bf
       -0.574585 0.6443225 0.40459558 -0.5710676
000010 07 62 a0 bd a7 50 d8 3e
       -0.07831197 0.42249033

enc.3.weight f4 [16, 6, 5, 5]
000000 75 fe eb bc f4 3f 17 be a4 cc db be 81 00 79 be
       -0.028807858 -0.1477049 -0.42929566 -0.24316598
000010 b3 ef 3c 3e 7a 75 dc 3d ad b7 7a bc c9 56 ba be
       0.18450813 0.107645944 -0.015302581 -0.36394337
000020 ba 9f 7f be dd 31 8a 3e dd 59 0e 3e 64 0b 5b 3d
       -0.24963275 0.26991168 0.13901468 0.05347766
000030 3c c5 8b be ff cf c4 bd 0a cd a3 3e ac 4c a4 3e
       -0.27298915 -0.096099846 0.3199237 0.32089746
000040 70 0b 20 3e f7 5d 68 be b9 98 08 be c3 b6 75 3e
       0.15629363 -0.22692095 -0.13339509 0.239955
000050 93 b0 56 3e cd 11 1f be 2d b8 f0 be 4e 6d a9 be
       0.20965795 -0.15534134 -0.47015515 -0.33091205
000060 2d 13 9e 3d 3d b9 14 bf 9c ad 98 3c 2d ce 16 3f
       0.07718501 -0.5809515 0.01863747 0.5890835
000070 c3 33 b6 3c b4 a6 10 bf 91 af 42 bf 50 0e ac be
       0.022241479 -0.5650437 -0.76049143 -0.3360467
000080 28 16 d0 3e b4 2f d7 3d 15 fe 59 bf cd 7d 7e bf
       0.40641904 0.105071455 -0.85153323 -0.99410707
000090 e0 28 d4 be 96 e9 22 3e 3b ce c7 3e 58 3a a9 be
       -0.41437435 0.15909418 0.3902453 -0.33052325
0000a0 04 5e 62 bf 5b 80 e8 be 4f f6 09 3e 71 b6 12 3f
       -0.88424706 -0.45410427 0.13472866 0.57309633
0000b0 9b 13 03 3e 33 37 c2 bf 5e 24 a0 be d2 2a a9 3f
       0.12800448 -1.5173095 -0.31277746 1.3216193
0000c0 ca cd c6 3f 74 27 2b 3f c8 d9 ee be 50 96 87 3f
       1.5531552 0.66857076 -0.4665053 1.0592747
0000d0 72 41 84 3f b2 52 9e be 8a d6 de 3e 18 a2 86 be
       1.0332472 -0.30922467 0.43523055 -0.26295543
0000e0 23 c2 a0 3e 43 73 6e 3f 62 e9 dd be 48 f2 de be
       0.31398115 0.93144625 -0.4334212 -0.4354422
0000f0 71 56 82 bf dc 6e 00 3e 25 97 82 3f 99 f5 4d 3e
       -1.018263 0.1254229 1.0202376 0.2011322
000100 07 eb 20 bf 1b 69 7f bf 20 15 9a 3c b7 dd 8e 3f
       -0.62858623 -0.99769753 0.018808901 1.1161412
000110 b0 60 33 3f 2e fc 34 bc cd 93 a0 bf 6a a3 c1 bc
       0.7006941 -0.011046452 -1.2545105 -0.023637492
000120 67 f2 46 3f 37 a5 be 3e 21 f1 af 3d b0 c1 30 3d
       0.77713627 0.37235424 0.085909136 0.043153465
000130 44 ee 88 be fc e6 fa be 06 71 6c be 8d c1 ba 3e
       -0.26744282 -0.49004352 -0.2308999 0.36475793
000140 ce 7d e3 3d 1e 08 aa bd 89 21 b5 be b1 4b 50 be
       0.1110798 -0.083023295 -0.35377148 -0.20341374
000150 ec 8e 7a 3e 7f 3c 51 3e b1 5b f4 3d 04 fb 64 be
       0.24468583 0.20433234 0.11931551 -0.2236138
000160 3b 31 3c bd 36 45 90 3e 9b d0 a0 3e 4e 35 54 3d
       -0.045945387 0.28177804 0.31409153 0.051808648
000170 60 0c a8 be 1f 12 f7 bd af 82 30 3e 81 d4 73 3e
       -0.3282194 -0.12064003 0.17237352 0.23811533
000180 45 81 32 be 39 32 1f bf 6b 7a c1 be fd f1 44 3d
       -0.17432125 -0.6218601 -0.3778871 0.04808234
000190 fe 40 28 be 59 c1 0d 3f 5a be 40 3e a8 c7 b5 be
       -0.16431043 0.5537315 0.18822613 -0.35503888
0001a0 a7 e6 ad 3d 25 e1 0e be 8a 30 bc 3e 88 8a 57 3e
       0.08491259 -0.13953073 0.36755782 0.21048939
0001b0 38 07 87 be b9 9e 9f be 59 62 b1 be fe a4 ff 3e
       -0.26372695 -0.31175783 -0.34645346 0.49930567
0001c0 3b cf af 3e 66 fc 82 ba 0c b4 bd be a1 61 3a bf
       0.34337792 -0.0009993433 -0.37051427 -0.7280522
0001d0 b8 3c 4f 3f e9 07 ac 3e 8c ef 9b 3e 57 c7 b8 3c
       0.80952024 0.33599785 0.30456197 0.02255599
0001e0 cf b6 1d bf 20 08 b5 3f 15 35 2f 3f 72 30 89 3e
       -0.6160707 1.4143105 0.6844037 0.26794773
0001f0 fd 8e 6c bc 4d 67 24 bd e6 26 20 3f a5 64 de 3e
       -0.014438388 -0.040137578 0.62559354 0.4343616
000200 c9 02 61 be 04 5c 86 3e a3 57 96 be b3 49 9a bd
       -0.21973719 0.26242077 -0.29363737 -0.07533588
000210 82 a4 ad 3d b9 e3 87 be 44 61 2a bd ca f5 11 bf
       0.08478643 -0.26540926 -0.041596666 -0.5701567
000220 0b 07 16 bd f2 26 86 3e 31 c5 3b be df 2f 29 be
       -0.03662781 0.26201588 -0.18336941 -0.16522168
000230 95 83 65 bf af f5 1e 3e 25 fd 9e 3d 7a 14 73 3e
       -0.89653903 0.15523408 0.07763127 0.2373828
000240 7d f0 31 bc 84 4d 53 bf be 30 1f 3f d2 e6 5f 3e
       -0.0108605595 -0.82540154 0.6218375 0.21865395
000250 24 1b 8d 3e a1 b3 c0 3d d3 b4 a1 be dd 04 e3 be
       0.2755977 0.094092615 -0.3158327 -0.44339648
000260 0c cf 4e bf 9f 82 18 bf ee 26 a0 be 73 4a 6f be
       -0.8078468 -0.5957431 -0.312797 -0.23368244
000270 a1 9f a0 be 3e 92 ff be 99 ac 87 be 68 a7 83 be
       -0.31371787 -0.4991626 -0.2649887 -0.25713658
000280 11 a5 9a be fb 48 52 be 9d bd 5a be 21 43 72 bd
       -0.3020406 -0.20535652 -0.21361394 -0.05914605
000290 ad d0 52 ba 42 41 84 be 5f e3 a4 be 1d 07 93 be
       -0.00080419594 -0.25831038 -0.3220472 -0.28716365
0002a0 7e 6e 40 be be 18 34 be e8 17 19 be 87 79 9f be
       -0.1879215 -0.17587563 -0.14950526 -0.31147406
0002b0 cc 3b 07 be 28 b4 aa bd c3 2a 3c be 86 07 a9 3d
       -0.13206404 -0.08335143 -0.18375687 0.08253388
0002c0 f1 57 f2 3e 69 92 e4 3e 6f 02 e6 3e 8f 33 29 bd
       0.4733272 0.44642952 0.44923732 -0.041308936
0002d0 3d a3 bf 3c c6 f7 c2 3e 06 b6 e0 3e 8f 6d 38 be
       0.023393268 0.3807966 0.43888873 -0.18010543
0002e0 f1 9c 93 3d 9a b2 c8 3e c7 57 83 3e 26 a3 f0 3d
       0.072076686 0.39198762 0.25652906 0.11749868
0002f0 72 72 91 3d 6d f5 8a 3c 59 f2 cb 3e 8d a3 7b 3e
       0.07101907 0.016962731 0.39833334 0.24574108
000300 21 19 59 3e a1 50 7d 3e 00 c6 d1 3c e8 f3 1f 3b
       0.21200992 0.24737789 0.02560711 0.0024406854
000310 9b 02 61 3e e8 8e 8d 3e 10 a4 de 3d 58 fe d8 bd
       0.2197365 0.2764809 0.10871136 -0.10595387
000320 8d 63 9e bc 6b 5e 51 3f 81 f6 20 3f 3a 8e 03 3f
       -0.019334579 0.81784695 0.62876135 0.51388896
000330 f6 65 e3 3d 72 b4 70 3e 43 68 23 3f 25 a9 19 3f
       0.11103432 0.23506334 0.63830966 0.6002372
000340 5e 99 0d 3f d3 62 0b 3e a7 f1 08 be 6a af b3 3e
       0.55312145 0.13611917 -0.13373433 0.35094768
000350 5e 4b ff 3e 1d a0 30 3d 1c 18 37 3d b5 dc 40 3e
       0.49862188 0.043121446 0.044700727 0.18834193
000360 f4 e1 ec 3d 79 56 73 3c 33 2a a4 bd 51 49 04 be
       0.11566535 0.01485216 -0.08015861 -0.12918593
000370 51 0d 9f 3e 2e f4 29 be 2f 4a 97 3d 45 fe 40 3e
       0.31064847 -0.16597053 0.07387196 0.18846996
000380 38 28 1f be 21 d8 a4 be 3c fc 22 bf d9 19 5b bf
       -0.15542686 -0.32196143 -0.6366613 -0.85586315
000390 4c 9a 10 bf b1 4f ed be f0 3a 82 be 47 11 d2 be
       -0.5648544 -0.46349862 -0.2543559 -0.41028807
0003a0 bb 4d 0b bf fa f1 a9 be 37 24 a4 be 88 e2 70 be
       -0.5441548 -0.33192426 -0.3205888 -0.23523915
0003b0 a8 8b 87 be 28 71 35 be 50 e7 4e bd 15 79 10 bd
       -0.26473737 -0.17718947 -0.050513566 -0.035271723
0003c0 ee ad ad be 0b a7 c5 be 82 e6 52 be a0 1e 1a be
       -0.3392176 -0.38604006 -0.20595744 -0.15050745
0003d0 04 0a 88 be 39 63 70 be d8 45 c4 be 46 ac ba bd
       -0.2657014 -0.2347535 -0.38334537 -0.0911489
0003e0 eb 00 11 be ec d8 3a be f6 36 e4 3e ba a1 9f 3e
       -0.14160506 -0.18246812 0.44573182 0.31178075
0003f0 f3 18 80 3e 9e 1f b9 bb ca 21 d8 3d 07 bf f1 3e
       0.25019035 -0.005649521 0.1055332 0.47216055

enc.3.bias f4 [16]
000000 24 85 fc bd 6d ec e1 bd 16 34 f0 bd 29 e7 cd bd
       -0.12330082 -0.11031423 -0.117286846 -0.10053856
000010 07 21 60 3d 1d 3b 6f bc 1a 31 11 3d 6e 9d aa bb
       0.054718997 -0.014601496 0.035447218 -0.0052067554
000020 04 b7 50 3d f8 ab 21 3d 75 a8 8e 3d a9 d8 71 3d
       0.050955787 0.039470643 0.069657244 0.059044514
000030 f8 d0 f6 ba e4 4a b8 3d f4 71 91 bd e5 a0 8d 3c
       -0.0018830588 0.08998659 -0.07101813 0.017288635

head.0.weight f4 [120, 400]
000000 df ea 2a be f0 67 ed 3d 1a ae 2f bf 51 4a 8c be
       -0.16691159 0.1159209 -0.6862503 -0.2740045
000010 1c 72 3f bd a9 e4 2f be 54 f1 c5 bd b0 c5 b8 3e
       -0.046739683 -0.1717707 -0.0966517 0.36088324
000020 4b f4 f8 be c7 ee f3 bd 91 54 1c be 22 90 84 3e
       -0.4862388 -0.119107775 -0.15266635 0.25891215
000030 78 70 ac 3e 83 88 75 be 0c f8 3c be 0a cf ef 3c
       0.33679557 -0.23977856 -0.18453997 0.029273529
000040 4e e1 9b 3e de f8 cf 3d f4 39 a9 3d 0a f2 40 be
       0.3044533 0.101548895 0.08263007 -0.1884233
000050 83 ef 85 3e d5 32 a6 3e bd d5 95 be 6f 45 c0 3e
       0.26159295 0.32460657 -0.29264632 0.37552974
000060 2d 34 9c bd 41 c8 50 bd 8f 1e 27 be 8f 50 d6 be
       -0.07627139 -0.050972227 -0.16320251 -0.41858336
000070 3a 24 ce bd 99 09 1f bd e4 cd 80 be db 3c af be
       -0.100655034 -0.038827512 -0.25157082 -0.34226117
000080 00 3c 15 be 2c 10 bc 3d d4 89 1c be 61 c0 6f bc
       -0.1457367 0.09182772 -0.15286952 -0.014633269
000090 1d 39 3a bf b5 76 90 bd 70 61 5b be 66 ce 1c be
       -0.727434 -0.070538916 -0.21423888 -0.1531311
0000a0 5f 5c 93 bc 51 f7 99 be f6 91 98 bd 99 ab 86 bc
       -0.017988382 -0.300715 -0.07449715 -0.016439246
0000b0 41 f7 6d bd a4 75 8c 3d c5 e7 f5 3d 79 05 29 3e
       -0.058097128 0.06858376 0.12007097 0.16505994
0000c0 de da fd 3d 48 4c 79 be 39 1c 22 3f 8a bb 80 be
       0.12395261 -0.24345505 0.63324314 -0.2514308
0000d0 40 60 c8 bd a8 69 4a bd df 01 f4 3d f4 ab 5b 3f
       -0.09783983 -0.049417168 0.119144194 0.85809255
0000e0 ca 82 76 3d 8a a0 14 bf f4 c5 30 be 60 31 a2 3e
       0.060183324 -0.58057463 -0.17263013 0.31678295
0000f0 fe e8 e2 3e 4d 8e 27 3e 48 a7 91 be 6d a7 21 be
       0.44318384 0.16362877 -0.28447938 -0.15786524
000100 cf 7d c0 3c 55 46 a7 be ea ea 75 3e b0 09 f5 bd
       0.02349749 -0.32670847 0.24015394 -0.11964738
000110 03 75 f7 bd 2d 07 9b 3e fe dc 8d 3e 77 b0 a2 3c
       -0.12082865 0.30278912 0.27707666 0.019859536
000120 f7 c2 30 be 81 bd 42 bd 1a f5 08 3f 46 94 1d be
       -0.17261873 -0.047544006 0.53498995 -0.15388593
000130 af 04 d1 be f6 3e 35 3c cc b8 9b bd 37 0d 4d 3e
       -0.40823886 0.011062374 -0.076036066 0.20024572
000140 2c 18 9d be fc 63 82 be a0 86 f2 bd ae 8d a1 be
       -0.30682504 -0.25466907 -0.11842084 -0.31553406
000150 f9 44 2a 3e e2 b0 09 bf b7 0b 8d 3c 5c 21 cb 3e
       0.16627873 -0.53785527 0.0172175 0.3967389
000160 d1 a2 c2 be 17 00 a1 3e e9 02 95 bd b6 4e 3d 3e
       -0.38014844 0.3144538 -0.07275946 0.18487057
000170 75 5f 96 3e 1d 3f 0b be ca 6a 91 3e b4 1d 62 3e
       0.29369703 -0.13598295 0.28401786 0.22081643
000180 82 29 b9 3e 69 95 98 3e 70 4f ac be 9a 2e 54 bd
       0.3616448 0.2980149 -0.33654356 -0.051802255
000190 c3 d4 33 3f ea 19 cf 3d 9b 1e 32 be a8 e6 0a be
       0.70246524 0.101123646 -0.17394488 -0.13564551
0001a0 9e 17 0c be 56 53 d9 bc 57 77 a3 bd 12 6e 26 be
       -0.13680884 -0.026528995 -0.07981747 -0.16252926
0001b0 1d b6 57 be bb e9 02 be e5 4f 2b 3d 5c de 73 3d
       -0.21065564 -0.12784474 0.04182424 0.05953823
0001c0 1e 71 17 be be 1a 6f be 3e ef 96 be da 9a 2e bd
       -0.14789245 -0.23350045 -0.29479402 -0.042628147
0001d0 ea 38 9d 3d d1 8f 80 3c 27 03 a9 3e 9d 4e db 3e
       0.07676871 0.015693577 0.33010218 0.42833415
0001e0 1d a4 4c bd 03 0e 1f 3e f1 ab f0 3e d1 22 2a 3f
       -0.049961198 0.15532689 0.4700618 0.66459376
0001f0 56 95 35 3f be 57 e8 3c ae 3c 8d be ac 99 10 be
       0.70930994 0.028362151 -0.27585357 -0.14121121
000200 91 38 46 3b 1c 06 7a 3d 70 70 82 bd 16 fe 22 be
       0.0030246119 0.061040983 -0.06369102 -0.15917239
000210 5f eb 0f 3e 9e 04 04 3d f7 d6 f9 3d 72 26 e9 3a
       0.1405463 0.032230966 0.121992044 0.0017787947
000220 3b 0a 29 be 94 b7 61 3e 2a 4e c4 bd 06 32 c7 3e
       -0.16507809 0.22042686 -0.09585221 0.38905352
000230 9d 36 0f 3d 4a 1e 42 bf 07 2d e5 3d 6e 76 73 be
       0.034964193 -0.7582747 0.11190229 -0.23775646
000240 51 f6 da 3e 08 c6 2c 3e f7 ac 90 3c 35 5d bd 3c
       0.4276605 0.16872418 0.017660601 0.023115734
000250 8b 8a 2c be 84 58 4c 3e a2 e3 e7 3e 06 24 b3 be
       -0.16849725 0.19955641 0.45290858 -0.3498842
000260 d6 92 aa be 7d ff cb bd 5d ab 81 3e e4 0e 37 3f
       -0.33315152 -0.0996084 0.25326052 0.71507096
000270 85 ed 54 bc a7 ec e6 be 6f e3 0f be d6 f3 3c 3e
       -0.012996082 -0.45102426 -0.14051603 0.18452391
000280 10 f5 d7 3d 33 c5 af bd d3 92 18 be b3 e3 ba bd
       0.10544789 -0.08582535 -0.14899759 -0.091254614
000290 c6 ff 21 3e 7e 43 d5 3c d8 23 e2 3c 53 a1 40 be
       0.15820226 0.02603316 0.027604982 -0.1881154
0002a0 48 09 e5 bd fc 1b 9d 3e 27 30 bd 3e 76 f2 27 3e
       -0.11183411 0.30685413 0.369508 0.16401085
0002b0 da 78 b5 be 07 82 14 be 98 01 8b 3e 14 b4 9b bc
       -0.35443765 -0.14502726 0.27149653 -0.019006766
0002c0 14 65 2b be da c7 4d be 56 d5 2e be 73 4e 35 3d
       -0.16737777 -0.20095769 -0.17073569 0.044264268
0002d0 c5 89 13 be 6c fc 8b bd 7f 25 01 be e1 fc 1b be
       -0.14408024 -0.06835255 -0.1261196 -0.15233184
0002e0 79 92 28 bd c7 8a e2 bc 42 b5 ad bc a2 cb 30 3e
       -0.041155312 -0.027654065 -0.021204595 0.1726518
0002f0 98 ac d5 3d 98 55 1c bc 29 05 de 3c 0b e2 53 3e
       0.1043331 -0.0095418915 0.02710207 0.20691697
000300 28 91 83 3e ee 68 d0 bd 94 ce cd 3b 65 5a a3 3c
       0.25696683 -0.10176264 0.0062807295 0.019940564
000310 07 96 31 3e e2 e4 63 3e d1 67 27 be c4 84 a2 bd
       0.17342387 0.2225528 -0.16348197 -0.07935479
000320 95 dd ed 3e a0 c3 bf bd 3a 9b 52 bc 4b 4a 70 3d
       0.46458116 -0.093634844 -0.012854392 0.0586646
000330 43 d6 0b 3f ac 18 3c 3f 5a c9 7a bd 2b c2 8f be
       0.5462381 0.73475146 -0.06122718 -0.28077826
000340 cc 04 62 be 3a c2 50 bd b9 1d 9a 3e cb cc f0 bc
       -0.22072142 -0.05096648 0.30100802 -0.029394528
000350 c8 16 5f bd 0d 9e 36 bc 24 a2 a1 3d 0c 24 03 3f
       -0.054465085 -0.011146081 0.07892254 0.5122688
000360 ce 3c 56 3d dd ff f2 bd ff ef 32 ba 55 7b a9 3e
       0.05230408 -0.11865208 -0.00068259233 0.33101907
000370 aa 6e b4 bd 71 aa 6e bc 36 9b 95 be c6 f5 ae bc
       -0.0881017 -0.014567004 -0.2921998 -0.021357428
000380 dc 5d 1a 3f 6c d7 41 3d f2 0e 77 3d ed fb d1 3d
       0.6029947 0.047324583 0.060316987 0.10253129
000390 ee f1 4e be 7f be a5 3d bd 99 3c bd c1 c1 21 3d
       -0.20209476 0.08092975 -0.046045054 0.03949142
0003a0 ae 81 21 3e 88 e8 db bd ac d9 65 3d ac 33 9e bd
       0.15772125 -0.10737711 0.05611579 -0.077246994
0003b0 3b 43 c5 bb 34 ac f9 3c 7d 97 1f 3d e4 a5 16 3e
       -0.0060199774 0.03047762 0.03896283 0.1471172
0003c0 63 53 8c b8 5a 1a 4f 3d 7c c7 58 3e 72 77 52 3e
       -6.691252e-05 0.05056224 0.21169847 0.20553377
0003d0 67 f5 5d 3d 9e 92 a7 bc 75 17 21 3e 53 50 de 3d
       0.054189112 -0.020455655 0.15731604 0.108551644
0003e0 64 84 94 3d 74 09 8b bc d8 5d 77 3d 6e ca 7c 3c
       0.07251814 -0.016972281 0.06039223 0.015429122
0003f0 cf 1b 07 be a5 db e0 3e 6f 80 c5 3c 90 be 0e bc
       -0.13194202 0.43917575 0.024109093 -0.008712426

head.0.bias f4 [120]
000000 ec 63 2c 3d 4b 6c 0d 3d b1 fa e1 3c 1b 32 84 bd
       0.04208748 0.034527104 0.02758536 -0.06454869
000010 43 a9 1c 3d 4a 8b 7e 3d af aa 8c bd 76 de db 3d
       0.038247358 0.062144555 -0.06868493 0.107357904
000020 0a 2a ed 3b 4a c1 93 3c eb 9d 86 3d 39 b3 aa bc
       0.0072376775 0.018036503 0.06573089 -0.020837413
000030 0e d5 99 3d de f4 12 3d 30 04 83 bc 72 40 aa bd
       0.0751134 0.035878055 -0.015993208 -0.08313073
000040 3b e6 11 bd fd 8e 98 bd f6 ab f0 3c 70 ef 4a bd
       -0.035619956 -0.07449148 0.029378872 -0.04954475
000050 cc 03 8f 3d 18 96 f8 3c 7a f5 75 bd 15 e3 0f 3e
       0.06983146 0.030345008 -0.060048558 0.14051469
000060 36 ad 9b 3b 51 5e 6e bc fa ce f6 3b 06 88 59 3d
       0.004750873 -0.014548854 0.0075319977 0.053108238
000070 84 62 f2 bd f9 d7 d6 bd 55 1c e0 bd 64 63 4f bc
       -0.118351966 -0.10490412 -0.10942904 -0.012657974
000080 88 93 9a bc 3f c2 ac bd 2e 62 25 3d b7 f6 82 3d
       -0.018869177 -0.08435487 0.040376835 0.06394713
000090 42 39 51 bd bc cd 1c 3d b0 40 af 3d af 8d 0d bd
       -0.051079996 0.03828214 0.0855726 -0.034558948
0000a0 36 19 79 3d fd 9f 00 be 68 d9 84 bc 6e 0a 48 3d
       0.06081506 -0.1256103 -0.016216949 0.04883807
0000b0 88 ae 2e 3d 7f aa fd bc ce 35 57 bd ac 45 dd 3d
       0.042646915 -0.030965088 -0.052541547 0.108043045
0000c0 06 78 8c 3b 4a ac 31 3d 66 c6 e4 bc e1 b4 36 3d
       0.004286769 0.0433772 -0.027926635 0.044606093
0000d0 1b 0e 60 3d bc 43 10 3d 4f 2d 79 bc ed 72 a4 3d
       0.054700952 0.035220847 -0.015208556 0.08029733
0000e0 a8 c8 12 bd 42 49 7f bc 1d f4 c2 3d c6 f5 14 bd
       -0.035835892 -0.015581431 0.09519217 -0.0363672
0000f0 1d 5b 4a bc 8a 55 4b bd c9 4b fd bb e6 80 e5 3c
       -0.012350825 -0.049642123 -0.0077299816 0.028015565
000100 17 ac 97 bd 8f ec d9 3b 39 d1 37 bc 83 8f 42 3d
       -0.074058704 0.0066505144 -0.011219316 0.047500145
000110 c3 bc f3 bd 9a 4c 2d bd e9 f0 20 bd 76 5d e7 3a
       -0.11901238 -0.04230938 -0.03929225 0.0017651755
000120 ef 8a 86 3d 77 42 a2 3c 9b 34 ba bd 90 24 80 bd
       0.06569468 0.019807084 -0.09092065 -0.06256974
000130 a7 5a 3e bc 65 9f 6c 3d 55 e6 01 bd 37 d1 9c 3d
       -0.011618293 0.057769198 -0.031713802 0.07657092
000140 d1 2c fc bc 75 59 f1 bd 87 7a 18 bd da 38 94 3d
       -0.030783089 -0.11784641 -0.037226226 0.07237406
000150 0e 60 b1 bc e6 1a 51 3b 24 70 ee bc 48 8e 91 bd
       -0.021652248 0.0031906902 -0.029106207 -0.07107216
000160 e2 90 c0 bd 6d 82 81 bc 13 1d 1d 3d fc 2f c4 bc
       -0.09402634 -0.015809262 0.038357805 -0.023948662
000170 f7 77 e2 3d dd 5d d2 bc 82 41 75 3c ef 2c 1e bb
       0.11058038 -0.025679523 0.014969232 -0.002413567
000180 10 f2 45 bd 9a 3d 4a 3c 44 10 f8 3c 67 c0 8a 3d
       -0.048326552 0.0123437885 0.030281194 0.06774979
000190 9d ff cd bc 9f ff 08 be 85 d0 3d 3d fc a9 b6 bd
       -0.0251463 -0.13378762 0.046341438 -0.08919141
0001a0 43 ef 5c 3c 5b f5 53 3d 34 18 9f 3d 94 d3 1a be
       0.013484779 0.05174766 0.07768288 -0.15119773
0001b0 0b c2 df 3c 1e 46 a1 bc ae c6 cd 3c 57 f0 7a 3d
       0.027314207 -0.019686755 0.025119152 0.061264362
0001c0 fd f4 90 bd bc 3c c8 bd 23 3b a7 bc 3b 1f 7d 3d
       -0.07077978 -0.09777209 -0.02041394 0.06179736
0001d0 df 40 6b bd 2d ae 2d bd 07 43 75 3b 6c 40 98 3d
       -0.057434913 -0.042402435 0.0037423985 0.074341625

head.2.weight f4 [84, 120]
000000 22 b1 07 bd d6 fe 0b be 6c 40 63 3e 05 64 fa bd
       -0.03312791 -0.13671431 0.22192544 -0.122261085
000010 49 69 57 be 63 56 c5 3e 8f a5 29 3f 68 d7 fb 3c
       -0.21036257 0.3854247 0.6626825 0.030742362
000020 c8 c3 96 be d1 67 95 bc 5d 29 c9 bd 53 db 76 be
       -0.29446244 -0.01823798 -0.098223425 -0.24107103
000030 d3 ff 8e 3d 4d 43 d0 be bb 1b 53 3d ec 1d 88 be
       0.06982388 -0.40676346 0.051540118 -0.2658533
000040 83 27 ef 3e e2 eb d7 bd 86 2c 6e bf b4 2c 4b 3d
       0.46709833 -0.10543038 -0.9303669 0.04960318
000050 5b 72 16 3e 86 53 49 3d 0c 55 3e 3d 92 82 9b 3d
       0.1469206 0.04915192 0.046467826 0.07593264
000060 6f bf db 3d 46 c5 39 3e 44 f2 45 3f 38 d4 2c 3d
       0.107298724 0.1814166 0.77322793 0.042194575
000070 01 38 05 be f6 09 fc bc c0 7f ef 3d 74 55 18 bf
       -0.13009645 -0.030766468 0.11694288 -0.5950539
000080 11 f8 ad 3b 77 a7 10 3f 78 c2 73 bc a1 10 5a be
       0.005309113 0.5650553 -0.014877908 -0.21295406
000090 0f da 9d bc f6 57 60 3e 1b 6f df 3d 0a b5 53 3e
       -0.019269018 0.21908554 0.109098636 0.2067453
0000a0 d2 3c 63 be 6b b8 9d bc 5b 6b 31 be 94 b5 89 3d
       -0.2219117 -0.019252976 -0.17326109 0.067240864
0000b0 db 57 39 bf 9b 2b 1c 3e a3 d6 9d 3d 9e 92 a7 bd
       -0.7239968 0.15251009 0.07706954 -0.08182262
0000c0 02 00 4a bf c0 1f c7 be 20 06 0b 3e ef ae 68 3e
       -0.7890626 -0.3889141 0.13576555 0.22722982
0000d0 50 df 44 bf 42 10 da 3e ea 0b f0 3e c5 86 89 be
       -0.7690325 0.4259053 0.4688409 -0.26860633
0000e0 6e 34 ea 3b 9c 6c 92 bd c7 9a 44 be 22 fc c7 3e
       0.0071473634 -0.07149622 -0.19199668 0.3905955
0000f0 1b d2 b9 be c8 4a 43 3f 78 3d 54 3d d3 8f 42 bf
       -0.3629311 0.7628598 0.051816434 -0.7600071
000100 e6 c6 13 3f c6 92 bb 3e 2e 89 e6 bd 52 87 10 3e
       0.5772537 0.36635417 -0.11256634 0.1411412
000110 2e 6e f3 bc 99 27 d3 bd 09 56 0a bf 36 a6 03 bf
       -0.029715624 -0.10310287 -0.5403753 -0.5142549
000120 34 78 a2 be a2 2f 17 3d 6d 75 49 3e ae ff d9 3e
       -0.31732333 0.03691066 0.196737 0.4257788
000130 2d d9 98 be a7 97 a6 3e 7f 30 1a bf 92 20 a5 bd
       -0.29853192 0.32537577 -0.6023025 -0.08062853
000140 ed b5 ad 3e b3 a8 0e 3e 64 e2 13 be 19 1c 46 3e
       0.3392786 0.13931541 -0.1444183 0.19346656
000150 c0 58 7a 3d ed fd a2 be bf 89 2b bf a4 f2 1c be
       0.061119795 -0.31834355 -0.6700706 -0.15326935
000160 64 11 b5 be ab 74 a2 3e da 3d 47 3c d7 d3 2b 3e
       -0.3536483 0.31729636 0.012160743 0.16780029
000170 ff 19 bf be 27 34 fb bd 90 18 a9 be 40 b8 cb 3d
       -0.3732452 -0.12265807 -0.33026552 0.09947252
000180 ee 3a 30 3e 3c 49 de be 79 c1 30 bf db 8f 4a 3e
       0.1720998 -0.43415248 -0.69045216 0.19781439
000190 f1 9f 92 bd 75 52 02 3f 2e de 25 be 5f fa 26 bd
       -0.07159413 0.5090707 -0.16198036 -0.040766116
0001a0 da c0 3e be b1 21 a9 3e 3d 7a 2c bf 0b c0 bd 3e
       -0.18628255 0.33033517 -0.6737402 0.3706058
0001b0 bd 5e 5d 3d 5e 95 1a bd 07 03 66 3d d2 ae 81 be
       0.054045428 -0.037740104 0.05615523 -0.2532869
0001c0 94 76 20 bf aa ee d2 bc 22 01 5e bd ab 77 87 be
       -0.62680936 -0.02574857 -0.0542003 -0.26458487
0001d0 e1 f2 9b 3e 84 2f fc 3e 19 35 35 3e d9 e3 cb 3e
       0.3045874 0.49255002 0.17696036 0.3982227
0001e0 f8 68 85 3e 03 d2 c4 3d a9 79 54 3d c5 d5 79 bc
       0.26056647 0.09610369 0.051873837 -0.0152487205
0001f0 e1 c6 4d be 4c 00 23 3f d7 a6 ba be 63 d9 25 bf
       -0.20095398 0.6367233 -0.36455414 -0.6478483
000200 1d a6 9e be bb 3e 7c 3d 33 0b 49 3e 11 d7 93 bc
       -0.3098611 0.061583262 0.19633178 -0.018046888
000210 3b 0b 22 3e ac 8e 55 3e fa 4f 1b bf 59 aa 6d 3d
       0.15824597 0.20855206 -0.6066891 0.058023784
000220 68 94 80 be 7a 2a 5f 3e 77 21 0b be a9 e9 8a 3c
       -0.25113225 0.21793547 -0.13586985 0.016957121
000230 b3 99 47 be 08 f5 88 3d 4c 30 41 be c8 fd 3b be
       -0.19492225 0.06687361 -0.1886608 -0.18358529
000240 c7 a9 1b 3e ce 99 48 be 96 c5 ec be 0b 55 64 3e
       0.15201484 -0.19589922 -0.46244496 0.22298066
000250 03 02 07 bf a7 a0 d0 3e 1a 81 56 bf 6a b0 b0 3e
       -0.52737445 0.40747568 -0.83790743 0.34509593
000260 5e 9d 17 bf 9d 33 75 be 4b ca a4 3d 34 ad 9c 3e
       -0.592245 -0.2394547 0.08046397 0.30600893
000270 1b aa c1 bd 37 76 fd be e2 5d fb be 2e 55 66 3e
       -0.09456273 -0.49504253 -0.49095064 0.22493431
000280 18 94 5b ba bb e1 89 bd f6 8c 43 3e e9 f2 8f be
       -0.00083762547 -0.06732508 0.19096741 -0.28115013
000290 13 64 6a 3d 62 64 12 be 03 a2 60 3e 58 ca e4 3e
       0.057224344 -0.14296106 0.21936803 0.44685626
0002a0 0e a8 e5 bc 8d 07 91 bf 65 fd 4b bf 24 99 8a bc
       -0.028034236 -1.1330429 -0.79683524 -0.016918726
0002b0 4c 26 1e be e2 d2 ef be 5e 32 d1 be 2e 0c 28 3e
       -0.15444297 -0.46840578 -0.4085874 0.16410896
0002c0 61 aa 32 3f 89 05 9b bb aa 29 70 3e f2 50 b0 be
       0.6979123 -0.0047308845 0.23453394 -0.34436756
0002d0 6e bd b2 be 6c 70 4a bf c4 b7 44 3e e9 46 ec bc
       -0.34910148 -0.7907779 0.19210726 -0.028842406
0002e0 b7 c0 ea be be 83 52 bd 85 60 fd be 13 dd f6 3d
       -0.45850155 -0.05139517 -0.494877 0.12053885
0002f0 3b bd ce be 77 0d 47 be a4 34 fc be 74 4d cc bd
       -0.40378746 -0.1943873 -0.49258912 -0.099757105
000300 0d a8 30 be e0 27 c9 3e 5f ad 29 be 7b 89 13 bf
       -0.17251606 0.39288235 -0.16570042 -0.57631654
000310 5c c8 1a 3e 6f d7 8f 3e 6d cc b1 3d 98 ea 92 3e
       0.15115494 0.2809405 0.08681569 0.28694606
000320 d8 19 f5 bd f2 de 54 3e 79 6f 6a be b4 a8 09 bf
       -0.1196782 0.20788172 -0.22894086 -0.53773046
000330 b6 a1 3a 3e 2c 40 a8 3e dd 23 0e 3e 16 3e 8d bf
       0.1822575 0.3286146 0.13880868 -1.1034572
000340 c1 05 c1 3e ea 56 b2 3e ac b4 d4 3e 82 52 44 3e
       0.37699702 0.34831935 0.41544092 0.19172099
000350 8c ce 4b 3d 7d f5 38 bf 42 96 5f bf 76 1f 14 3e
       0.049757525 -0.72249585 -0.8733865 0.14465126
000360 7b 21 0a 3e 8c 61 92 be a5 a8 41 3f 0c ad e0 be
       0.13489334 -0.28590047 0.75647956 -0.43882024
000370 bb 65 89 bd c1 54 bd 3d 92 00 91 3e f9 5f aa be
       -0.06708857 0.09244681 0.28320748 -0.33276346
000380 ad 54 72 3e ca c4 9d be 8b 96 c4 3e c0 29 da 3d
       0.23665114 -0.308142 0.38396105 0.106524944
000390 60 5a e6 3d 3e 62 6a 3e 17 12 68 3e a1 5b ca 3e
       0.112477064 0.22889039 0.2266315 0.39523032
0003a0 05 be 70 3e c3 66 2b be a6 e0 00 bf 80 2c bf 3e
       0.23509987 -0.16738419 -0.50342786 0.37338638
0003b0 12 c5 7a bd 86 6b 1d 3d 47 e5 09 be fb 2e 1f be
       -0.061223097 0.03843262 -0.13466369 -0.15545265
0003c0 ea 62 c3 be 98 fa 14 be 64 c6 4d 3e 6f ec bb bc
       -0.38161403 -0.14548719 0.20095211 -0.022939889
0003d0 a0 30 54 3e db 22 fa be eb 84 01 3f 0d f3 3c 3d
       0.20721674 -0.48854718 0.5059344 0.04613023
0003e0 a3 7d 84 3e c6 63 f0 bc d8 63 c8 be 2c 8f 1c 3e
       0.25877103 -0.02934445 -0.39138675 0.1528899
0003f0 28 f3 01 bf 42 bd e4 bd 74 7c 1a 3f 38 70 d3 3e
       -0.5076165 -0.111689106 0.6034615 0.41296554

head.2.bias f4 [84]
000000 20 04 d7 bc 89 56 98 3d 0e c0 83 bd e9 db 3d 3b
       -0.026247084 0.0743838 -0.06433116 0.0028970188
000010 89 9d 11 3d 3f 14 a2 3d 8d 21 f8 bc fd a1 e7 bd
       0.035550628 0.07914018 -0.030289436 -0.11310194
000020 31 2f 9b 3d af b5 6b 3d a7 ed db bc 19 0d 99 3b
       0.075773604 0.057546314 -0.02684672 0.004670751
000030 88 e0 a1 3d 4e 78 9a 3c 86 e1 21 bd 41 83 3f bd
       0.07904154 0.018856194 -0.039521717 -0.046756033
000040 64 61 45 bc bd fc 99 3d 88 61 58 bc 21 52 9d 3c
       -0.0120471455 0.07518909 -0.013206847 0.019204201
000050 0b c6 1d 3d 97 7f 07 3e 0c d2 87 bd 77 6e d4 bd
       0.038518947 0.13232265 -0.0663186 -0.10372632
000060 57 9a 01 bd 1b 3e 01 3d c9 dd 12 3d 20 bf b3 bc
       -0.03164133 0.03155337 0.035856042 -0.021941721
000070 87 12 31 3a d4 0d d3 ba 68 a8 f3 3c f6 d3 70 3c
       0.0006754775 -0.0016102144 0.029743388 0.014698973
000080 b9 73 35 bd ef 11 ed 3d 6e c5 82 bc 5c 48 04 bd
       -0.044299815 0.11575686 -0.015963282 -0.03229557
000090 8a 6e 47 3d c9 c1 99 3d 57 2a 27 3d 90 e8 21 bd
       0.048689403 0.07507665 0.040811863 -0.03952843
0000a0 4f 5e a1 3c 6a 46 fc 3d 7b 7d ce 3d e1 dd e1 bd
       0.01969829 0.12318118 0.10082527 -0.11028648
0000b0 77 1e 2c be c6 35 b4 bd 62 9f ff 3c 19 30 00 bc
       -0.16808496 -0.08799319 0.03120393 -0.007823967
0000c0 da 11 d9 3d 1e 7b 57 3d 82 e4 11 bd 56 5e e9 3d
       0.10599108 0.052607648 -0.035618313 0.11394946
0000d0 6a f3 53 3d 4a c1 ad 3d 38 dd 8d 3d d4 0a 4d bd
       0.05174581 0.084841326 0.0692696 -0.050059155
0000e0 8a 25 76 3d 05 9e 7c 3d f8 39 dd 3c fa 08 51 3d
       0.060094394 0.061674137 0.02700518 0.05103395
0000f0 33 b3 1b 3d a6 78 31 bc d7 70 7d 3d 64 a8 70 bd
       0.038012695 -0.0108319875 0.06187519 -0.05875434
000100 5a c8 d6 bc 1c f8 25 bd 67 77 11 bd c1 45 a2 bd
       -0.026218582 -0.04051982 -0.03551426 -0.07923461
000110 94 3a 98 3d 59 83 4a bd 29 85 36 bd 97 68 01 3d
       0.07433048 -0.04944167 -0.044560585 0.031593885
000120 e2 38 25 3b 8e 8d 61 bd 4f 7f 13 3d 0a 7d c7 3d
       0.0025210907 -0.055066638 0.036010083 0.09740646
000130 33 bc 65 3b 88 50 6c bd bb 13 86 bc 80 8e d2 bd
       0.0035054802 -0.057693988 -0.01636683 -0.10281086
000140 bb fe 1f be a9 03 7a bd 3f ff 81 3d 65 9d d0 bc
       -0.15624516 -0.061038647 0.063475125 -0.025465677

head.4.weight f4 [10, 84]
000000 44 88 f7 be fe 33 b6 3e f5 d4 50 bf 65 00 fc 3d
       -0.4834615 0.35586542 -0.81574947 0.12304763
000010 e0 cd 08 bf cb d9 36 bd 44 1e 15 be 64 39 db 3d
       -0.5343914 -0.044641297 -0.14562327 0.10704306
000020 12 b7 20 3f fe 9b b7 3e 0e b8 ae be ac 99 40 3d
       0.62779343 0.358612 -0.34124798 0.047021553
000030 c1 3a 5a 3e 38 d8 59 3e 6c dd 4d bd a7 28 5f 3d
       0.21311475 0.21273887 -0.050259992 0.05448213
000040 b7 e3 d9 bd 4d 60 0c 3e e7 5e f2 3e 11 54 3a bc
       -0.10639136 0.13708611 0.4733803 -0.011372582
000050 79 c1 25 bf 25 51 4f be 85 5d 21 bf 0b 1e 19 bf
       -0.6474834 -0.20245798 -0.63033324 -0.59811467
000060 7e 2f 16 bf cd f6 99 be 41 a5 c6 3e f2 46 18 3e
       -0.5866622 -0.30071107 0.38797954 0.14870813
000070 a9 72 7b 3e 2e 62 05 bf 5a b5 82 3d 53 b0 9f be
       0.24555458 -0.52102935 0.06382246 -0.31189212
000080 b7 ff 73 3d 9c 15 81 3e c7 50 3b be c1 6e c5 3e
       0.05957004 0.252118 -0.18292533 0.3856106
000090 c7 de 08 3e df e5 4b 3a b1 fd 2e be be 2e ba 3e
       0.13366233 0.0007778089 -0.17088963 0.36363786
0000a0 38 50 a2 3d 58 e1 04 3f 99 22 6e 3e bf b6 93 3e
       0.07925457 0.5190635 0.23255385 0.28850362
0000b0 64 c0 10 bf 39 cc 30 bf f6 e6 ea bd 81 ab f3 3e
       -0.56543565 -0.6906162 -0.114698336 0.47591785
0000c0 8a d2 79 3e 96 fe 78 bf d1 63 8b 3f b7 ea a7 be
       0.2439672 -0.9726347 1.0889837 -0.3279626
0000d0 17 d0 62 bf ee 7c af be 42 69 2a 3e 01 b3 d9 3e
       -0.8859877 -0.34275 0.16641715 0.42519382
0000e0 6c 68 0e bd ef 63 51 3e 62 f0 95 bd 2b 4b d5 3e
       -0.034767553 0.20448278 -0.0732124 0.4165891
0000f0 05 77 71 bf 2d e3 4f bf 38 97 f8 3e 27 74 2b 3e
       -0.94322234 -0.8120602 0.4855287 0.16743527
000100 6d 83 5e bf e0 a6 a1 3e d6 00 a4 be af 39 22 bf
       -0.8691929 0.31572628 -0.32031888 -0.6336927
000110 d0 e7 b2 be 5a 96 18 3f df e9 af 3e 37 ce d7 3d
       -0.34942484 0.5960442 0.34358117 0.10537379
000120 27 86 b2 be 70 f1 68 bd 9e be f8 be 3d c4 d9 be
       -0.34867975 -0.056870878 -0.4858293 -0.4253253
000130 e1 a3 8f 3e 6f 6f 77 3e 24 f4 b6 be c7 f4 06 3e
       0.28054717 0.24163602 -0.3573314 0.13179313
000140 1c 4e 39 3e a5 5f 83 be 50 94 44 bf 50 56 03 3e
       0.18096203 -0.25658908 -0.76788807 0.12825894
000150 2e 46 e5 3d c4 ca 0a bf 47 60 8b 3e e2 22 bf bd
       0.11195026 -0.54215646 0.2722189 -0.09332825
000160 22 7a 1c bf fc a2 7b be ee 6c 41 bf ac 19 99 bf
       -0.6112386 -0.24573892 -0.7555684 -1.196096
000170 22 ad a3 bf 6c cb 13 bf e2 e3 5e 3f d4 77 c4 3d
       -1.2787211 -0.5773227 0.8706647 0.09593168
000180 28 f8 cb 3e a3 90 1a bf 4f 3e 3d be da 63 00 bf
       0.39837766 -0.6037695 -0.184808 -0.5015236
000190 84 2a ed 3c b1 b6 a5 bf 17 d3 d2 bd fe fc a9 bd
       0.028950937 -1.2946378 -0.102941684 -0.083002076
0001a0 85 f3 75 3f 04 08 87 bd 31 40 25 3f a4 74 08 bf
       0.96074706 -0.06593326 0.64551073 -0.5330298
0001b0 66 4c 26 3f ef 84 bb bd 9c b0 57 bf 02 79 d9 3d
       0.64960325 -0.091562144 -0.8425386 0.106187835
0001c0 dc 19 c5 3d d3 aa a5 be 96 8e 2d 3f a3 59 a0 3f
       0.09624073 -0.3235689 0.67795694 1.2527355
0001d0 df ab 0f 3d 0d 03 c2 3d c9 e3 3d bf b9 ba 8e 3d
       0.03507602 0.09473238 -0.741757 0.06969208
0001e0 30 91 4d bc e3 1d c4 3e 4f d6 35 3f d1 6e 02 bf
       -0.012546822 0.38304052 0.71030134 -0.5095034
0001f0 f9 81 14 bd cc 7f 3a bc 56 fa 4b 3e db 5b 44 bf
       -0.036256764 -0.011383008 0.19919714 -0.7670266
000200 e4 21 b9 be 1e 6f 3b 3e 1d 6f f1 3d f6 c8 66 be
       -0.3615867 0.18304107 0.11788771 -0.22537598
000210 5e 02 a7 3d 9b e4 6a 3f 08 cf 4c 3e 2a a6 0b be
       0.081547484 0.91755074 0.20000851 -0.13637605
000220 48 2c 29 bf a9 4b 0b bf 8e a3 45 3e 14 e7 8e 3d
       -0.6608319 -0.54412323 0.19300672 0.069776684
000230 53 bf 9c 3d 76 41 8d bf 07 bd e7 3c b9 34 a6 be
       0.0765368 -1.1035602 0.028288377 -0.324621
000240 e1 0f fd be 06 2e 89 3f 72 9d d2 bd 65 b3 2b 3e
       -0.49426177 1.071717 -0.102839366 0.16767652
000250 c1 19 48 bd 81 9a 15 bf cd a2 44 bf f2 ca a2 3d
       -0.048852686 -0.5843888 -0.76810914 0.07948865
000260 44 18 38 3e d8 0c c1 3f 0d 51 09 be 0e 8b bb 3c
       0.17978007 1.5082045 -0.13409825 0.022893455
000270 27 c6 b1 38 37 6e 3e 3c 66 f6 a0 bf e3 ee 4e bf
       8.4769265e-05 0.011622957 -1.2575195 -0.8083326
000280 23 c1 74 bf e4 24 34 bf bb 29 18 bf 6d ca b6 3c
       -0.95607203 -0.7036879 -0.59438676 0.022313321
000290 99 1f 68 bf 03 4f 90 bf 58 28 0b 3e a2 9a 95 be
       -0.90673214 -1.1274112 0.13589609 -0.29219538
0002a0 09 15 96 be 19 f7 b1 3e fa 56 88 3d a3 0c 89 3b
       -0.29312924 0.34758833 0.066572145 0.0041824146
0002b0 09 05 9d 3d 56 16 9b be 01 cb 7a be ce 9b aa 3e
       0.07666976 -0.30290478 -0.24491502 0.33321995
0002c0 ec 2d 89 be 29 9c be 3d b5 99 0e bf 49 a9 5a 3d
       -0.26792848 0.09307129 -0.5570329 0.0533841
0002d0 c4 00 35 3f b4 4e 70 3e 78 fe 68 be dc e7 12 bf
       0.70704293 0.23467523 -0.22753322 -0.5738504
0002e0 e0 ec 19 3e 4a 96 d1 be 1d 98 8e bf 00 db 98 3e
       0.15031767 -0.40934974 -1.1140171 0.29854584
0002f0 00 b2 17 be 31 3d 80 bf 2f 37 36 3e 1e d8 b8 3e
       -0.14813995 -1.0018674 0.17794488 0.36102384
000300 ce 7e ef 3d 09 8d ad be da 96 9d 3d 2e da 33 3e
       0.11694108 -0.33896664 0.07694788 0.17563698
000310 32 b5 4a 3e 54 c7 02 3d 87 9f e8 3e b6 02 03 bf
       0.19795683 0.031928375 0.4543421 -0.5117601
000320 b2 58 45 bf eb c9 a1 bf 8f 6d a6 be 52 33 88 bf
       -0.77088463 -1.2639745 -0.32505462 -1.0640662
000330 07 bb 52 3d bc 29 7a be 8a 24 c7 3e 36 fc 7c bf
       0.051447894 -0.24429983 0.38895065 -0.98822343
000340 ff 78 74 3f ac d9 1d bf 64 00 a5 3e 12 24 5c 3d
       0.95497125 -0.61660266 0.3222686 0.053745337
000350 31 1f 96 3e 40 38 36 be b7 05 b2 3d 1e 34 dd bd
       0.29320672 -0.17794895 0.08692496 -0.10800956
000360 cc ea 13 bf cc 2b 15 bf 1b 01 7f bf c0 0b 00 be
       -0.57780147 -0.58269954 -0.9961106 -0.12504482
000370 ec 9a 92 3d 6e 81 75 bf b5 db 94 bf 31 c4 3c be
       0.07158455 -0.9590062 -1.1629549 -0.18434216
000380 46 e4 81 3e b0 0c 1f 3e 3c 71 3f bc 4b 45 3c 3e
       0.2536947 0.15532184 -0.011684712 0.18385808
000390 37 a5 ad 3e 91 f7 1b bf 8d 8d 47 bf bb 0a 18 3f
       0.3391511 -0.6092463 -0.77950364 0.59391373
0003a0 ff 4d 92 bd fc 45 18 3e 30 36 00 bf 04 0d 21 be
       -0.07143783 0.14870447 -0.50082684 -0.15727621
0003b0 be ad c4 3b a6 c7 b3 be 6e c2 4b bf 18 e3 54 3e
       0.006002157 -0.35113257 -0.7959355 0.20789754
0003c0 dc de e3 be 87 76 fe 3d ed ef 05 be c1 96 25 bd
       -0.44505966 0.12424951 -0.13079806 -0.040426973
0003d0 0d ed ed 3e 1f 38 33 3e c3 7c 61 bd 5b 28 0b 3e
       0.46469918 0.17501877 -0.055050623 0.13589613
0003e0 37 1a 71 3c 46 bc ff 3c e3 aa 70 be 6c ff 1b 3f
       0.014715723 0.031217705 -0.23502688 0.6093662
0003f0 7c 09 63 bd be 24 3e bf bf ab b2 3e 2e 1c b8 3c
       -0.055428967 -0.74274814 0.34896657 0.022474375

head.4.bias f4 [10]
000000 38 ec 83 3d c5 4f e8 bd b9 5f a0 3d 95 d5 f5 bc
       0.064415395 -0.1134334 0.07830758 -0.03000907
000010 ce e7 b0 3d 8e c2 2d be 26 87 b8 bc fe 09 29 bd
       0.08637963 -0.16968748 -0.022525381 -0.041269295
000020 ab 8d df 3b 8b 6f eb 3d
       0.006822308 0.114958845
